…
      epoch    train_bal_acc    train_loss    valid_bal_acc    valid_loss      dur
    -------  ---------------  ------------  ---------------  ------------  -------
          1           0.2365        1.5797           0.1606        1.5795  45.9124
          2           0.2132        1.5550           0.1453        1.5837  44.1206
          3           0.2381        1.5350           0.1787        1.5915  45.7135

    <class 'braindecode.classifier.EEGClassifier'>[initialized](
      module_=USleep(
        (encoder): Sequential(
          (0): _EncoderBlock(
            (block_prepool): Sequential(
              (0): Conv1d(2, 6, kernel_size=(7,), stride=(1,), padding=same)
              (1): ELU(alpha=1.0)
              (2): BatchNorm1d(6, eps=1e-05, momentum=0.1, affine=True, track_running_stats=True)
            )
            (pad): ConstantPad1d(padding=(1, 1), value=0)
            (maxpool): MaxPool1d(kernel_size=2, stride=2, padding=0, dilation=1, ceil_mode=False)
          )
          (1): _EncoderBlock(
            (block_prepool): Sequential(
              (0): Conv1d(6, 9, kernel_size=(7,), stride=(1,), padding=same)
              (1): ELU(alpha=1.0)
              (2): BatchNorm1d(9, eps=1e-05, momentum=0.1, affine=True, track_running_stats=True)
            )
            (pad): ConstantPad1d(padding=(1, 1), value=0)
            (maxpool): MaxPool1d(kernel_size=2, stride=2, padding=0, dilation=1, ceil_mode=False)
          )
          (2): _EncoderBlock(
            (block_prepool): Sequential(
              (0): Conv1d(9, 11, kernel_size=(7,), stride=(1,), padding=same)
              (1): ELU(alpha=1.0)
              (2): BatchNorm1d(11, eps=1e-05, momentum=0.1, affine=True, track_running_stats=True)
            )
            (pad): ConstantPad1d(padding=(1, 1), value=0)
            (maxpool): MaxPool1d(kernel_size=2, stride=2, padding=0, dilation=1, ceil_mode=False)
          )
          (3): _EncoderBlock(
            (block_prepool): Sequential(
              (0): Conv1d(11, 15, kernel_size=(7,), stride=(1,), padding=same)
              (1): ELU(alpha=1.0)
              (2): BatchNorm1d(15, eps=1e-05, momentum=0.1, affine=True, track_running_stats=True)
            )
            (pad): ConstantPad1d(padding=(1, 1), value=0)
            (maxpool): MaxPool1d(kernel_size=2, stride=2, padding=0, dilation=1, ceil_mode=False)
          )
          (4): _EncoderBlock(
            (block_prepool): Sequential(
              (0): Conv1d(15, 20, kernel_size=(7,), stride=(1,), padding=same)
              (1): ELU(alpha=1.0)
              (2): BatchNorm1d(20, eps=1e-05, momentum=0.1, affine=True, track_running_stats=True)
            )
            (pad): ConstantPad1d(padding=(1, 1), value=0)
            (maxpool): MaxPool1d(kernel_size=2, stride=2, padding=0, dilation=1, ceil_mode=False)
          )
          (5): _EncoderBlock(
            (block_prepool): Sequential(
              (0): Conv1d(20, 28, kernel_size=(7,), stride=(1,), padding=same)
              (1): ELU(alpha=1.0)
              (2): BatchNorm1d(28, eps=1e-05, momentum=0.1, affine=True, track_running_stats=True)
            )
            (pad): ConstantPad1d(padding=(1, 1), value=0)
            (maxpool): MaxPool1d(kernel_size=2, stride=2, padding=0, dilation=1, ceil_mode=False)
          )
          (6): _EncoderBlock(
            (block_prepool): Sequential(
              (0): Conv1d(28, 40, kernel_size=(7,), stride=(1,), padding=same)
              (1): ELU(alpha=1.0)
              (2): BatchNorm1d(40, eps=1e-05, momentum=0.1, affine=True, track_running_stats=True)
            )
            (pad): ConstantPad1d(padding=(1, 1), value=0)
            (maxpool): MaxPool1d(kernel_size=2, stride=2, padding=0, dilation=1, ceil_mode=False)
          )
          (7): _EncoderBlock(
            (block_prepool): Sequential(
              (0): Conv1d(40, 55, kernel_size=(7,), stride=(1,), padding=same)
              (1): ELU(alpha=1.0)
              (2): BatchNorm1d(55, eps=1e-05, momentum=0.1, affine=True, track_running_stats=True)
            )
            (pad): ConstantPad1d(padding=(1, 1), value=0)
            (maxpool): MaxPool1d(kernel_size=2, stride=2, padding=0, dilation=1, ceil_mode=False)
          )
          (8): _EncoderBlock(
            (block_prepool): Sequential(
              (0): Conv1d(55, 77, kernel_size=(7,), stride=(1,), padding=same)
              (1): ELU(alpha=1.0)
              (2): BatchNorm1d(77, eps=1e-05, momentum=0.1, affine=True, track_running_stats=True)
            )
            (pad): ConstantPad1d(padding=(1, 1), value=0)
            (maxpool): MaxPool1d(kernel_size=2, stride=2, padding=0, dilation=1, ceil_mode=False)
          )
          (9): _EncoderBlock(
            (block_prepool): Sequential(
              (0): Conv1d(77, 108, kernel_size=(7,), stride=(1,), padding=same)
              (1): ELU(alpha=1.0)
              (2): BatchNorm1d(108, eps=1e-05, momentum=0.1, affine=True, track_running_stats=True)
            )
            (pad): ConstantPad1d(padding=(1, 1), value=0)
            (maxpool): MaxPool1d(kernel_size=2, stride=2, padding=0, dilation=1, ceil_mode=False)
          )
          (10): _EncoderBlock(
            (block_prepool): Sequential(
              (0): Conv1d(108, 152, kernel_size=(7,), stride=(1,), padding=same)
              (1): ELU(alpha=1.0)
              (2): BatchNorm1d(152, eps=1e-05, momentum=0.1, affine=True, track_running_stats=True)
            )
            (pad): ConstantPad1d(padding=(1, 1), value=0)
            (maxpool): MaxPool1d(kernel_size=2, stride=2, padding=0, dilation=1, ceil_mode=False)
          )
          (11): _EncoderBlock(
            (block_prepool): Sequential(
              (0): Conv1d(152, 214, kernel_size=(7,), stride=(1,), padding=same)
              (1): ELU(alpha=1.0)
              (2): BatchNorm1d(214, eps=1e-05, momentum=0.1, affine=True, track_running_stats=True)
            )
            (pad): ConstantPad1d(padding=(1, 1), value=0)
            (maxpool): MaxPool1d(kernel_size=2, stride=2, padding=0, dilation=1, ceil_mode=False)
          )
        )
        (bottom): Sequential(
          (0): Conv1d(214, 302, kernel_size=(7,), stride=(1,), padding=(3,))
          (1): ELU(alpha=1.0)
          (2): BatchNorm1d(302, eps=1e-05, momentum=0.1, affine=True, track_running_stats=True)
        )
        (decoder): Sequential(
          (0): _DecoderBlock(
            (block_preskip): Sequential(
              (0): Upsample(scale_factor=2.0, mode=nearest)
              (1): Conv1d(302, 214, kernel_size=(2,), stride=(1,), padding=same)
              (2): ELU(alpha=1.0)
              (3): BatchNorm1d(214, eps=1e-05, momentum=0.1, affine=True, track_running_stats=True)
            )
            (block_postskip): Sequential(
              (0): Conv1d(428, 214, kernel_size=(7,), stride=(1,), padding=same)
              (1): ELU(alpha=1.0)
              (2): BatchNorm1d(214, eps=1e-05, momentum=0.1, affine=True, track_running_stats=True)
            )
          )
          (1): _DecoderBlock(
            (block_preskip): Sequential(
              (0): Upsample(scale_factor=2.0, mode=nearest)
              (1): Conv1d(214, 152, kernel_size=(2,), stride=(1,), padding=same)
              (2): ELU(alpha=1.0)
              (3): BatchNorm1d(152, eps=1e-05, momentum=0.1, affine=True, track_running_stats=True)
            )
            (block_postskip): Sequential(
              (0): Conv1d(304, 152, kernel_size=(7,), stride=(1,), padding=same)
              (1): ELU(alpha=1.0)
              (2): BatchNorm1d(152, eps=1e-05, momentum=0.1, affine=True, track_running_stats=True)
            )
          )
          (2): _DecoderBlock(
            (block_preskip): Sequential(
              (0): Upsample(scale_factor=2.0, mode=nearest)
              (1): Conv1d(152, 108, kernel_size=(2,), stride=(1,), padding=same)
              (2): ELU(alpha=1.0)
              (3): BatchNorm1d(108, eps=1e-05, momentum=0.1, affine=True, track_running_stats=True)
            )
            (block_postskip): Sequential(
              (0): Conv1d(216, 108, kernel_size=(7,), stride=(1,), padding=same)
              (1): ELU(alpha=1.0)
              (2): BatchNorm1d(108, eps=1e-05, momentum=0.1, affine=True, track_running_stats=True)
            )
          )
          (3): _DecoderBlock(
            (block_preskip): Sequential(
              (0): Upsample(scale_factor=2.0, mode=nearest)
              (1): Conv1d(108, 77, kernel_size=(2,), stride=(1,), padding=same)
              (2): ELU(alpha=1.0)
              (3): BatchNorm1d(77, eps=1e-05, momentum=0.1, affine=True, track_running_stats=True)
            )
            (block_postskip): Sequential(
              (0): Conv1d(154, 77, kernel_size=(7,), stride=(1,), padding=same)
              (1): ELU(alpha=1.0)
              (2): BatchNorm1d(77, eps=1e-05, momentum=0.1, affine=True, track_running_stats=True)
            )
          )
          (4): _DecoderBlock(
            (block_preskip): Sequential(
              (0): Upsample(scale_factor=2.0, mode=nearest)
              (1): Conv1d(77, 55, kernel_size=(2,), stride=(1,), padding=same)
              (2): ELU(alpha=1.0)
              (3): BatchNorm1d(55, eps=1e-05, momentum=0.1, affine=True, track_running_stats=True)
            )
            (block_postskip): Sequential(
              (0): Conv1d(110, 55, kernel_size=(7,), stride=(1,), padding=same)
              (1): ELU(alpha=1.0)
              (2): BatchNorm1d(55, eps=1e-05, momentum=0.1, affine=True, track_running_stats=True)
            )
          )
          (5): _DecoderBlock(
            (block_preskip): Sequential(
              (0): Upsample(scale_factor=2.0, mode=nearest)
              (1): Conv1d(55, 40, kernel_size=(2,), stride=(1,), padding=same)
              (2): ELU(alpha=1.0)
              (3): BatchNorm1d(40, eps=1e-05, momentum=0.1, affine=True, track_running_stats=True)
            )
            (block_postskip): Sequential(
              (0): Conv1d(80, 40, kernel_size=(7,), stride=(1,), padding=same)
              (1): ELU(alpha=1.0)
              (2): BatchNorm1d(40, eps=1e-05, momentum=0.1, affine=True, track_running_stats=True)
            )
          )
          (6): _DecoderBlock(
            (block_preskip): Sequential(
              (0): Upsample(scale_factor=2.0, mode=nearest)
              (1): Conv1d(40, 28, kernel_size=(2,), stride=(1,), padding=same)
              (2): ELU(alpha=1.0)
              (3): BatchNorm1d(28, eps=1e-05, momentum=0.1, affine=True, track_running_stats=True)
            )
            (block_postskip): Sequential(
              (0): Conv1d(56, 28, kernel_size=(7,), stride=(1,), padding=same)
              (1): ELU(alpha=1.0)
              (2): BatchNorm1d(28, eps=1e-05, momentum=0.1, affine=True, track_running_stats=True)
            )
          )
          (7): _DecoderBlock(
            (block_preskip): Sequential(
              (0): Upsample(scale_factor=2.0, mode=nearest)
              (1): Conv1d(28, 20, kernel_size=(2,), stride=(1,), padding=same)
              (2): ELU(alpha=1.0)
              (3): BatchNorm1d(20, eps=1e-05, momentum=0.1, affine=True, track_running_stats=True)
            )
            (block_postskip): Sequential(
              (0): Conv1d(40, 20, kernel_size=(7,), stride=(1,), padding=same)
              (1): ELU(alpha=1.0)
              (2): BatchNorm1d(20, eps=1e-05, momentum=0.1, affine=True, track_running_stats=True)
            )
          )
          (8): _DecoderBlock(
            (block_preskip): Sequential(
              (0): Upsample(scale_factor=2.0, mode=nearest)
              (1): Conv1d(20, 15, kernel_size=(2,), stride=(1,), padding=same)
              (2): ELU(alpha=1.0)
              (3): BatchNorm1d(15, eps=1e-05, momentum=0.1, affine=True, track_running_stats=True)
            )
            (block_postskip): Sequential(
              (0): Conv1d(30, 15, kernel_size=(7,), stride=(1,), padding=same)
              (1): ELU(alpha=1.0)
              (2): BatchNorm1d(15, eps=1e-05, momentum=0.1, affine=True, track_running_stats=True)
            )
          )
          (9): _DecoderBlock(
            (block_preskip): Sequential(
              (0): Upsample(scale_factor=2.0, mode=nearest)
              (1): Conv1d(15, 11, kernel_size=(2,), stride=(1,), padding=same)
              (2): ELU(alpha=1.0)
              (3): BatchNorm1d(11, eps=1e-05, momentum=0.1, affine=True, track_running_stats=True)
            )
            (block_postskip): Sequential(
              (0): Conv1d(22, 11, kernel_size=(7,), stride=(1,), padding=same)
              (1): ELU(alpha=1.0)
              (2): BatchNorm1d(11, eps=1e-05, momentum=0.1, affine=True, track_running_stats=True)
            )
          )
          (10): _DecoderBlock(
            (block_preskip): Sequential(
              (0): Upsample(scale_factor=2.0, mode=nearest)
              (1): Conv1d(11, 9, kernel_size=(2,), stride=(1,), padding=same)
              (2): ELU(alpha=1.0)
              (3): BatchNorm1d(9, eps=1e-05, momentum=0.1, affine=True, track_running_stats=True)
            )
            (block_postskip): Sequential(
              (0): Conv1d(18, 9, kernel_size=(7,), stride=(1,), padding=same)
              (1): ELU(alpha=1.0)
              (2): BatchNorm1d(9, eps=1e-05, momentum=0.1, affine=True, track_running_stats=True)
            )
          )
          (11): _DecoderBlock(
            (block_preskip): Sequential(
              (0): Upsample(scale_factor=2.0, mode=nearest)
              (1): Conv1d(9, 6, kernel_size=(2,), stride=(1,), padding=same)
              (2): ELU(alpha=1.0)
              (3): BatchNorm1d(6, eps=1e-05, momentum=0.1, affine=True, track_running_stats=True)
            )
            (block_postskip): Sequential(
              (0): Conv1d(12, 6, kernel_size=(7,), stride=(1,), padding=same)
              (1): ELU(alpha=1.0)
              (2): BatchNorm1d(6, eps=1e-05, momentum=0.1, affine=True, track_running_stats=True)
            )
          )
        )
        (clf): Sequential(
          (0): Conv1d(6, 6, kernel_size=(1,), stride=(1,))
          (1): Tanh()
          (2): AvgPool1d(kernel_size=(3000,), stride=(3000,), padding=(0,))
          (3): Conv1d(6, 5, kernel_size=(1,), stride=(1,))
          (4): ELU(alpha=1.0)
          (5): Conv1d(5, 5, kernel_size=(1,), stride=(1,))
          (6): Identity()
        )
      ),
    )



.. GENERATED FROM PYTHON SOURCE LINES 277-283

Plot results
------------

We use the history stored by Skorch during training to plot the performance of
the model throughout training. Specifically, we plot the loss and the balanced
balanced accuracy for the training and validation sets.

.. GENERATED FROM PYTHON SOURCE LINES 283-300
…
